actor_model.pt (torch, 53861 bytes, 6 tensors)

fc1.weight f4 [128, 33]
000000 a7 08 5b be 18 0a 84 3f 55 20 c0 bf 0a ae 58 be
       -0.2139002 1.031558 -1.5009867 -0.2116014
000010 fa 72 b0 be 6a da 0a bf 90 4f 23 be ed 3e 8c bd
       -0.3446272 -0.54239523 -0.1594832 -0.0684794
000020 e5 9f 70 3e 58 36 54 3e 5b 6c 8b be 44 50 d9 be
       0.23498495 0.20723855 -0.27231106 -0.4244405
000030 47 8b 5a 3e 64 ff 35 3f 54 67 18 bf d5 41 e5 3e
       0.21342193 0.7109282 -0.59532666 0.44776788
000040 a2 ec 4c be 87 be af 3e 6d 56 46 bf cf a4 46 3f
       -0.20012143 0.34325048 -0.77475625 0.7759523
000050 04 d8 75 3e ee 7b 56 3e a2 a2 02 3f 8e ef bc 3e
       0.24008185 0.20945713 0.5102941 0.36901516
000060 7b 67 a1 be b6 01 b7 be fe b5 0d 3f 25 f7 82 3f
       -0.31524262 -0.35743493 0.55355823 1.0231673
000070 ad 05 55 be 36 56 ee 34 31 f7 82 bf 35 5e 0e b4
       -0.20802946 4.439368e-07 -1.0231687 -1.3259053e-07
000080 d8 95 0d c1 14 ac bd 3f c3 6a 63 3f 31 3e 7f 3e
       -8.849083 1.4818139 0.8883478 0.24926068
000090 80 c4 33 3f 09 d0 d1 bc 60 4f 92 3f 42 b0 af be
       0.7022171 -0.025611894 1.1430473 -0.34314162
0000a0 49 50 da be 22 b7 0e be 3b 4d 4c bf b5 c3 64 3f
       -0.42639378 -0.13937047 -0.79805344 0.89361125
0000b0 81 a2 ed 3e 89 2d ba 3e 61 e8 81 bf 29 97 80 be
       0.46413043 0.36362866 -1.0149041 -0.25115326
0000c0 0c 68 04 3e ef 2c 50 be b9 89 c2 be 5d e8 b2 be
       0.12930316 -0.20329641 -0.379957 -0.34942904
0000d0 f4 2b 18 3f 7d 97 b1 bd 43 06 81 3f 3a 7a c4 be
       0.5944207 -0.08671472 1.0080036 -0.383745
0000e0 99 b3 6e bf a2 7e fb bd 14 53 c6 3d 15 58 45 3f
       -0.93242794 -0.12280013 0.09683815 0.7708753
0000f0 10 9d 2b 3f 8c 7d 0c bf f5 9e ea 33 11 9d 2b bf
       0.67036533 -0.5487907 1.0925388e-07 -0.6703654
000100 4d 2f 89 b2 fe 24 a4 c0 12 4e 88 34 85 ee 14 34
       -1.5970409e-08 -5.1295156 2.5388778e-07 1.3870347e-07
000110 fc c2 1b 34 35 b2 a7 34 37 2d 5c b5 17 c8 05 35
       1.4506435e-07 3.1235837e-07 -8.202218e-07 4.983753e-07
000120 5a d6 19 b4 5b 07 84 34 ac 8c e7 b4 5e be c4 34
       -1.4327216e-07 2.4592268e-07 -4.3129455e-07 3.6646355e-07
000130 f7 af 22 b5 19 ae c6 b2 b9 c6 f7 b3 79 77 f9 b4
       -6.0605765e-07 -2.3129404e-08 -1.1537981e-07 -4.6466792e-07
000140 39 98 f3 b4 b0 d6 07 35 0d d3 70 35 2e c9 91 b3
       -4.5373034e-07 5.060383e-07 8.9714086e-07 -6.788683e-08
000150 f6 30 18 b5 e7 a7 cb b4 ec 21 63 b5 0d 96 56 b5
       -5.669566e-07 -3.7933862e-07 -8.461345e-07 -7.9939565e-07
000160 4f be a4 b4 39 e4 6b b5 8c a3 76 b3 97 03 14 b5
       -3.0685848e-07 -8.787643e-07 -5.7425083e-08 -5.513952e-07
000170 72 32 e1 34 3d f4 61 b5 18 5d 22 34 57 b9 82 35
       4.194622e-07 -8.4174445e-07 1.5121293e-07 9.739696e-07
000180 d5 24 5b 35 cd 73 90 34 d1 78 4a b5 61 e3 fa b2
       8.1637455e-07 2.6906346e-07 -7.5426675e-07 -2.920723e-08
000190 f1 82 d0 33 e9 f1 8e b4 03 cc 0f b4 8f 52 8b 34
       9.709573e-08 -2.6625574e-07 -1.3392132e-07 2.5950837e-07
0001a0 37 52 96 34 d1 d7 6a 35 7f 3f a1 b4 05 1a 26 b4
       2.7999496e-07 8.748585e-07 -3.0034786e-07 -1.546942e-07
0001b0 a3 c8 ca 32 ba 86 e9 b2 08 8f 36 b1 8a c9 92 34
       2.3607134e-08 -2.7186037e-08 -2.656579e-09 2.7341258e-07
0001c0 3d d1 5b b4 f8 c5 af b4 62 1f 74 35 13 b7 c9 34
       -2.0472085e-07 -3.274033e-07 9.094275e-07 3.7572372e-07
0001d0 55 f1 11 b5 a8 ed 17 35 61 0d 69 35 d9 7b 5e b4
       -5.4367894e-07 5.659772e-07 8.681873e-07 -2.0720417e-07
0001e0 44 99 fc b4 2c 3f 80 b5 56 0b d4 33 1d 02 68 35
       -4.7050173e-07 -9.555129e-07 9.874081e-08 8.642981e-07
0001f0 2a f4 76 b5 68 92 2e 35 da b8 3f b5 af 9f 52 b5
       -9.1997447e-07 6.50331e-07 -7.142204e-07 -7.8463466e-07
000200 55 f7 b0 b2 86 8d dc b4 57 d1 ff b2 8a 05 60 b5
       -2.060157e-08 -4.1081165e-07 -2.9781104e-08 -8.3454563e-07
000210 78 ee bb 34 f9 12 49 b4 f4 18 5d 34 b2 d5 6b b5
       3.5004973e-07 -1.8726486e-07 2.0591307e-07 -8.785529e-07
000220 eb 56 e4 34 28 b5 d1 34 f1 0e 88 33 28 43 91 34
       4.253155e-07 3.9061092e-07 6.335711e-08 2.7057217e-07
000230 7d 88 05 35 fa 0e ee b3 7f 4e 35 34 d9 e9 ca b4
       4.974498e-07 -1.1085463e-07 1.6885495e-07 -3.7795579e-07
000240 0f d4 e6 b4 87 33 2c b4 d9 af cf 33 f1 f7 46 b5
       -4.299513e-07 -1.6037494e-07 9.671175e-08 -7.412155e-07
000250 bf ff ae b4 cb 06 55 35 95 45 14 35 f1 a0 28 35
       -3.2596105e-07 7.935857e-07 5.523555e-07 6.281908e-07
000260 1d 0c 34 b5 4f 95 82 b5 cf 59 0b 35 de 8f 8c b4
       -6.707285e-07 -9.729209e-07 5.1912224e-07 -2.618171e-07
000270 90 80 1b b5 32 b0 b2 34 18 99 c9 34 56 b7 ed 34
       -5.792908e-07 3.3283283e-07 3.7550558e-07 4.4278084e-07
000280 79 23 31 b5 dd 22 31 b5 6c b0 75 35 1f f2 26 35
       -6.598926e-07 -6.598837e-07 9.152634e-07 6.219215e-07
000290 ce 99 63 35 a6 51 60 35 00 54 c5 b3 21 21 42 b4
       8.4787905e-07 8.3565317e-07 -9.188807e-08 -1.807971e-07
0002a0 40 85 cb 33 54 c4 3e 35 6a d8 67 b5 bb 0c 21 35
       9.477162e-08 7.106621e-07 -8.636913e-07 5.99957e-07
0002b0 3a cb e4 34 25 c9 5a b4 78 6d 11 35 97 1f be 34
       4.2616176e-07 -2.0376008e-07 5.417601e-07 3.5413242e-07
0002c0 cd 92 7d b5 59 8a 1d b5 5d fe 6e 35 0c 93 c7 b4
       -9.446347e-07 -5.868838e-07 8.9032056e-07 -3.717363e-07
0002d0 0d 57 57 b5 79 42 5b b5 f0 4e 66 33 d1 93 32 34
       -8.0220417e-07 -8.168059e-07 5.362284e-08 1.6631317e-07
0002e0 92 a8 3d b5 2b 4c fa 34 a7 96 93 b3 94 cf 70 35
       -7.065329e-07 4.6621548e-07 -6.8726244e-08 8.9709033e-07
0002f0 50 29 1a b5 4f 26 7c b5 f9 13 db b3 89 5f 7a b5
       -5.742959e-07 -9.393306e-07 -1.0201615e-07 -9.327128e-07
000300 7f ea 40 35 bb 25 e0 b4 5a 9f 2a 34 84 ba af 34
       7.186681e-07 -4.1750704e-07 1.5890456e-07 3.2731998e-07
000310 35 a8 0d 35 cf 12 f2 34 ed 47 35 35 55 09 8a b4
       5.2771367e-07 4.5089698e-07 6.753242e-07 -2.5711293e-07
000320 54 e4 3b 35 c6 33 ef 34 15 e1 2e b4 e2 93 e6 b2
       6.999519e-07 4.455489e-07 -1.6286897e-07 -2.6842773e-08
000330 77 4c 45 33 a6 80 50 b5 94 87 dc b4 85 5a 38 35
       4.593718e-08 -7.7673246e-07 -4.107684e-07 6.8677065e-07
000340 ba a0 c4 34 52 61 11 35 7a 5a 7c b5 d1 5d 4a 35
       3.662479e-07 5.415833e-07 -9.4008976e-07 7.5387385e-07
000350 c9 2f 6f b5 ab 59 29 34 85 fe 84 b5 fd e9 2c b5
       -8.9103975e-07 1.5771973e-07 -9.908841e-07 -6.441549e-07
000360 1f cb 53 b5 97 71 5d b5 4c 65 60 b5 f6 2e 24 b5
       -7.8899205e-07 -8.249421e-07 -8.359391e-07 -6.11631e-07
000370 c3 9a 2a 35 7a d2 37 35 33 7a 5b b5 4a 09 79 34
       6.3555143e-07 6.8479096e-07 -8.176168e-07 2.3193311e-07
000380 33 cc 09 b5 49 48 10 34 86 5d 45 b5 86 74 e1 34
       -5.1333626e-07 1.3437342e-07 -7.3524313e-07 4.1994298e-07
000390 ca 56 77 b5 0e 6c 12 b5 5a f5 c0 34 a3 73 63 b5
       -9.2140965e-07 -5.454648e-07 3.5941304e-07 -8.4732363e-07
0003a0 40 67 12 33 c7 08 4a b5 83 fb 65 35 92 7a 4c b5
       3.408718e-08 -7.5263637e-07 8.5675146e-07 -7.6174285e-07
0003b0 bf 23 73 b5 1e e0 3f 34 09 27 5c b5 11 36 0c 33
       -9.057657e-07 1.7869795e-07 -8.201319e-07 3.2645463e-08
0003c0 76 f8 36 b5 d5 aa 2a b5 f7 49 70 35 be d9 58 35
       -6.816184e-07 -6.357853e-07 8.95146e-07 8.0783127e-07
0003d0 33 33 6e b5 3c 4e 91 b3 ab b3 19 b4 51 e8 60 b5
       -8.8736414e-07 -6.7663194e-08 -1.4314598e-07 -8.378457e-07
0003e0 53 58 a5 34 f4 df 03 b0 ca 87 ca b3 91 19 49 35
       3.079791e-07 -4.797578e-10 -9.431058e-08 7.491554e-07
0003f0 d4 a7 41 35 b7 25 c6 b3 57 28 48 b5 1b 7f 08 34
       7.2142325e-07 -9.226954e-08 -7.456451e-07 1.2712228e-07

fc1.bias f4 [128]
000000 b8 f1 77 bf c5 e1 16 bf 24 bb 5f bd 29 77 56 bd
       -0.9685321 -0.58938247 -0.05462183 -0.052359734
000010 dc 90 c8 bc d5 78 30 be 0f f2 48 bd 67 40 17 be
       -0.024483137 -0.17233594 -0.04905897 -0.14770661
000020 5b 1a 31 3e 4b 06 ed bd 30 61 eb bf 61 cc 2b be
       0.1729521 -0.11573466 -1.8389034 -0.16777183
000030 7f 4d 7d bc 14 1e 17 be 24 62 00 bf ad e5 1f c0
       -0.015460371 -0.14757568 -0.5014975 -2.4983933
000040 18 7e 21 3e dd c6 57 bf 17 b9 07 be e1 66 46 bf
       0.15770757 -0.84287816 -0.132542 -0.7750073
000050 78 43 dc be 2a ad ad bd 9b 90 05 c0 c0 02 8b bd
       -0.43020225 -0.08480294 -2.086951 -0.06787634
000060 49 e5 74 bc 6e c5 94 bd b0 09 3e c0 3d c4 9d bd
       -0.014947244 -0.07264219 -2.9693413 -0.07703445
000070 aa 7c c8 bc 6a 65 f5 bf a9 99 91 bd 29 86 bc bd
       -0.024473507 -1.9171574 -0.071093865 -0.092052765
000080 cd 38 fc bf c0 42 56 bf ad 3e d6 bf ae a8 03 c0
       -1.9704834 -0.836956 -1.6737877 -2.0571704
000090 f1 9b 45 3f b5 74 93 bd e3 35 1e bf d5 e1 9a bd
       0.7719107 -0.071999945 -0.61800975 -0.07562605
0000a0 ee 4b 61 3f bf ca fe bd 38 71 8f bf 69 26 f5 bf
       0.88006485 -0.124410145 -1.1206427 -1.9152347
0000b0 35 fd 1a be 4b 0e 0b c0 42 30 0a bf 76 dc 3d bd
       -0.15135653 -2.1727474 -0.53979886 -0.046352826
0000c0 e2 1e c0 be 49 69 45 3f 89 bb 84 bd f8 f1 2a be
       -0.37523562 0.7711378 -0.06481082 -0.16693866
0000d0 30 3e c9 bf 9a 39 32 bf 0f af 9c bf 32 a2 ef bd
       -1.5722103 -0.69619143 -1.2240924 -0.11700858
0000e0 8d f5 08 bf 2d 52 1b c0 48 df a0 bd 17 eb 02 be
       -0.5349968 -2.4268906 -0.078550875 -0.12784992
0000f0 a1 51 05 be 9d d3 14 c0 9b e5 23 3e 0c af fa bd
       -0.1301942 -2.3254158 0.16005556 -0.12240419
000100 8b 4d 43 bf f8 23 13 3f 9b 5c 08 c0 51 8f 66 bd
       -0.76290196 0.5747676 -2.1306522 -0.05628902
000110 58 7a f4 be be 68 36 bf 91 9c 95 bc 99 9a db bc
       -0.4774959 -0.71253574 -0.018263133 -0.026807116
000120 55 6b 1f be e8 22 40 bd 92 80 9f bc b3 8d 1b be
       -0.15568288 -0.04690829 -0.019470487 -0.15190773
000130 ef eb bd bd 6f 62 ec bd 3c 93 1a c0 cf fb b2 bd
       -0.092735164 -0.11542212 -2.4152365 -0.08739435
000140 70 e3 9e be b2 e5 6b bd 0a 26 3e bf 10 a0 0d be
       -0.31032896 -0.0575921 -0.74276793 -0.1383059
000150 6c 11 a6 bc 57 37 1f c0 64 3c cd bd be a8 6a bd
       -0.02027198 -2.4877527 -0.10021284 -0.05728983
000160 b3 26 a7 be f1 03 39 bd 17 a5 04 be 9f 2c 55 bf
       -0.32646713 -0.045169774 -0.12953602 -0.8327121
000170 88 96 20 bf f2 b5 ad bd 78 d0 fe ba 26 b3 97 be
       -0.6272969 -0.08481969 -0.0019440791 -0.29628867
000180 b1 4e c0 bf 93 9c 8b 3f d4 34 b6 bd 63 5a f5 bf
       -1.5024015 1.0907158 -0.08896795 -1.9168209
000190 8d 2d 04 c0 f2 01 d5 bf b1 8c 95 bd c3 55 8e bd
       -2.0652802 -1.6641219 -0.073022254 -0.069499515
0001a0 26 4c 0a be 60 46 eb bf 02 b2 1f be 7a 9a 6d bd
       -0.13505611 -1.8380852 -0.15595248 -0.05800865
0001b0 49 21 33 c0 96 78 2b be 82 95 bb bd 51 1e 3d c0
       -2.7989066 -0.16745219 -0.09159376 -2.9549754
0001c0 67 e9 96 bd 6d 11 30 bf 15 dd 1c be a3 79 0c c0
       -0.07368737 -0.6877659 -0.15318711 -2.194924
0001d0 eb b9 c7 bb f8 16 85 bf 1a 3e c9 bf 89 2e 14 be
       -0.006095161 -1.0397635 -1.5722077 -0.14470877
0001e0 0d e3 0f be 6b f5 4e c0 67 8c 75 bc 5c 2d 14 be
       -0.14051457 -3.2337291 -0.014987088 -0.14470428
0001f0 49 2a 15 bd 46 a5 c8 bf 58 6e bf bc 60 df 9b be
       -0.03641728 -1.5675437 -0.023368046 -0.3044386

fc2.weight f4 [64, 128]
000000 ea 06 70 34 f4 c7 31 b5 15 83 1e 35 78 63 1c 35
       2.2354257e-07 -6.622861e-07 5.9050336e-07 5.8259275e-07
000010 e3 aa 32 34 fe f3 a4 b4 36 94 59 35 c4 93 44 35
       1.663971e-07 -3.0724908e-07 8.1054475e-07 7.3230717e-07
000020 ce 35 26 b5 df 32 c7 33 b3 5e 81 34 de ff e0 34
       -6.1918115e-07 9.275913e-08 2.4097025e-07 4.190942e-07
000030 21 b0 79 b5 ee 5d d3 b2 ba f8 20 35 3c be 2d b4
       -9.301603e-07 -2.4606347e-08 5.996659e-07 -1.6181087e-07
000040 20 b8 70 b4 aa 55 5a b5 70 b3 bf 34 59 c5 0d b5
       -2.2418726e-07 -8.1335986e-07 3.570708e-07 -5.281377e-07
000050 eb a7 a9 b4 f9 3d 49 35 18 79 32 35 f1 e4 10 35
       -3.160088e-07 7.4968517e-07 6.648638e-07 5.3977334e-07
000060 44 35 9a b4 98 6a bd b4 37 fd 6d 35 2d 31 1f b5
       -2.872349e-07 -3.528155e-07 8.8657856e-07 -5.9303676e-07
000070 ad bd 7e 35 33 fd 46 b5 4d 30 74 b4 40 e9 24 35
       9.489839e-07 -7.41292e-07 -2.2741843e-07 6.1434184e-07
000080 58 1d 3f 34 51 03 f8 b4 15 1a 30 b4 cb d5 b3 b3
       1.7798936e-07 -4.6196013e-07 -1.6400766e-07 -8.374226e-08
000090 74 b1 89 33 92 e9 b9 34 96 bd 97 b4 98 2f 97 b4
       6.411838e-08 3.462888e-07 -2.8263884e-07 -2.816057e-07
0000a0 94 b2 4b b5 35 7c 49 35 56 b9 cd 34 19 3d 17 b2
       -7.588326e-07 7.505908e-07 3.8319075e-07 -8.803249e-09
0000b0 d9 fb 3e b5 75 91 92 33 aa 65 18 35 2b f7 89 34
       -7.1147e-07 6.825113e-08 5.6772353e-07 2.5698077e-07
0000c0 80 53 05 35 10 bb 11 35 ea 95 67 b4 42 dd 7d 35
       4.966787e-07 5.428892e-07 -2.156809e-07 9.4571817e-07
0000d0 38 0b 82 35 03 96 4e b5 f4 ed d4 b4 a5 6b c2 b3
       9.68902e-07 -7.6959276e-07 -3.966121e-07 -9.0534094e-08
0000e0 ce 36 69 35 31 49 82 b5 8e b1 ee b4 44 be f6 34
       8.6879015e-07 -9.707056e-07 -4.4460143e-07 4.5959507e-07
0000f0 6f 88 00 b5 38 11 ce 34 fb da 45 35 b3 5c 3f b5
       -4.788225e-07 3.8383018e-07 7.370688e-07 -7.128794e-07
000100 03 83 5d b5 0f 2a 01 35 e8 a3 f3 34 b4 8f a4 b4
       -8.251956e-07 4.811745e-07 4.5381535e-07 -3.0651938e-07
000110 b4 1b 82 b5 f2 25 dd 34 3a 67 0e 35 a6 1d 4d b5
       -9.693817e-07 4.1192067e-07 5.3049337e-07 -7.6411595e-07
000120 78 0b a4 32 ef ab 5e 34 e0 65 bf 34 72 2e 79 b5
       1.9097328e-08 2.073791e-07 3.5650646e-07 -9.2827315e-07
000130 83 5e 73 b5 be a1 f2 34 21 2f 6a b5 8f 1b 27 35
       -9.0662087e-07 4.5193696e-07 -8.7240375e-07 6.225245e-07
000140 35 34 76 b5 3d 7e 2f 35 ba 48 b2 b4 9e cd 60 34
       -9.171811e-07 6.537628e-07 -3.3208e-07 2.0936429e-07
000150 f6 89 4e b5 85 f2 02 b5 ae d3 4c 35 cf 6a 81 b1
       -7.694174e-07 -4.8781686e-07 7.6303957e-07 -3.766537e-09
000160 be ec 1d 35 21 a8 73 b5 84 d8 e8 34 64 b8 38 b5
       5.8831563e-07 -9.0769214e-07 4.3370903e-07 -6.8813665e-07
000170 68 5b 29 35 fd 46 55 b5 55 a2 59 35 24 51 78 35
       6.309042e-07 -7.9451985e-07 8.1075024e-07 9.2505275e-07
000180 93 63 c4 b4 c8 41 7c b5 26 01 44 34 97 56 5d b4
       -3.6580295e-07 -9.397304e-07 1.825434e-07 -2.061373e-07
000190 1c 6b 5e 35 76 07 4a b5 a9 57 0f b5 29 ed 18 b5
       8.285731e-07 -7.526172e-07 -5.3399214e-07 -5.6969526e-07
0001a0 33 39 52 b5 bd 8a c8 34 aa 9a 86 b3 13 9b 31 34
       -7.831433e-07 3.7353848e-07 -6.2679945e-08 1.6540825e-07
0001b0 e7 27 1d 35 c1 b9 05 35 10 cf 62 34 7d 7c 1e b5
       5.8545123e-07 4.981667e-07 2.1123219e-07 -5.904074e-07
0001c0 6b a2 21 b5 6a 4d 6d 35 4d bf a2 b3 82 99 0a b5
       -6.0213523e-07 8.840203e-07 -7.57851e-08 -5.163239e-07
0001d0 91 1a 9d b4 c9 58 79 b3 b7 53 4c 35 71 59 2a b4
       -2.9262858e-07 -5.805558e-08 7.6117743e-07 -1.5865022e-07
0001e0 c5 e3 5f b4 a5 67 89 34 19 da 64 b5 12 c0 f6 b4
       -2.0851355e-07 2.559365e-07 -8.525399e-07 -4.596082e-07
0001f0 cc 24 5c 34 ef bf 1c b5 0c e4 89 34 9d 4b a1 34
       2.0502483e-07 -5.839383e-07 2.5684164e-07 3.0043603e-07
000200 9f 20 d5 b3 0f 61 52 b5 82 32 5a b5 0c 63 81 b5
       -9.924519e-08 -7.8372335e-07 -8.1284827e-07 -9.640075e-07
000210 08 3d 81 b3 37 e8 83 35 70 a2 81 b5 0e cc 2e b5
       -6.018132e-08 9.827844e-07 -9.658525e-07 -6.511699e-07
000220 9e 31 64 35 3f e4 55 b5 6b fa 29 b5 5f 89 23 35
       8.500882e-07 -7.9680825e-07 -6.332181e-07 6.0922133e-07
000230 b6 11 8f 33 c7 0e ea b3 97 70 48 33 8f 33 24 35
       6.662178e-08 -1.0899162e-07 4.666853e-08 6.116979e-07
000240 3b 9a 0b b5 ce a6 32 35 4d d9 6a 35 de ae e6 34
       -5.200597e-07 6.65529e-07 8.748801e-07 4.296807e-07
000250 42 25 1a b3 4a 7c 78 b4 96 06 7e 33 c9 cc d9 33
       -3.5889805e-08 -2.3142016e-07 5.9144973e-08 1.01421e-07
000260 10 86 f9 b4 eb b7 71 b5 05 dc ec b4 7a fe 84 33
       -4.6477408e-07 -9.004713e-07 -4.411851e-07 6.193018e-08
000270 11 34 3a 34 a1 da f1 34 33 53 58 34 9f 72 87 b4
       1.7341542e-07 4.5048822e-07 2.0146835e-07 -2.5229107e-07
000280 42 bb 45 b5 14 af 1a 33 e4 75 47 35 3b aa f0 b3
       -7.3660715e-07 3.601515e-08 7.430483e-07 -1.12068356e-07
000290 b3 26 6a 34 32 84 83 b5 01 5b 82 35 95 fb 3f b5
       2.1807027e-07 -9.798734e-07 9.71224e-07 -7.1519145e-07
0002a0 4b 56 31 35 03 d1 64 b5 a8 b0 0c b5 c5 d5 6b 35
       6.606321e-07 -8.524077e-07 -5.2411133e-07 8.78554e-07
0002b0 85 26 de 34 e9 d9 23 b5 b4 bf 23 b5 37 a4 2a b4
       4.137875e-07 -6.1039333e-07 -6.1001197e-07 -1.5892225e-07
0002c0 e9 c4 61 b5 05 b5 76 35 0e 76 bd b4 f1 e3 00 35
       -8.4105574e-07 9.190556e-07 -3.528989e-07 4.8015414e-07
0002d0 0e 79 4e 35 12 c0 d9 33 d0 7c 8d 34 21 ca b3 34
       7.691714e-07 1.0139787e-07 2.635411e-07 3.3488416e-07
0002e0 0e db 10 35 fd 78 bb b4 e7 97 cf b4 ac 19 8b b3
       5.3962947e-07 -3.4919495e-07 -3.8667278e-07 -6.4773616e-08
0002f0 b0 e6 c2 b3 1f a1 7c 35 6c 7b 29 35 3f 90 8c 33
       -9.075791e-08 9.411178e-07 6.313701e-07 6.545496e-08
000300 32 3d 12 b5 ce 01 86 b5 1d 5a 19 35 e2 3f 80 34
       -5.447829e-07 -9.984303e-07 5.7128074e-07 2.388834e-07
000310 e4 10 bb 34 8c 3f 82 b5 0b 46 a5 b1 21 80 52 b5
       3.4843754e-07 -9.704249e-07 -4.810095e-09 -7.841755e-07
000320 43 90 b1 34 74 89 11 35 d5 5d d9 31 be 58 44 b5
       3.3073783e-07 5.421673e-07 6.3261987e-09 -7.3144827e-07
000330 40 0e 10 b5 f1 80 7b 35 62 f7 6e 35 bc 7e 62 b5
       -5.3664917e-07 9.369242e-07 8.90219e-07 -8.4375984e-07
000340 e5 3f 01 b5 20 0a f6 34 6c 88 74 b5 8d 38 79 35
       -4.8149224e-07 4.5828438e-07 -9.1095603e-07 9.284202e-07
000350 ea ca 67 b3 d8 7f 1f b4 36 f2 0c 35 52 1e 13 35
       -5.3968428e-08 -1.4854538e-07 5.250653e-07 5.480589e-07
000360 5c 1c ba 34 f5 9e 46 35 60 3b 60 33 52 63 54 b4
       3.4665834e-07 7.399206e-07 5.2208065e-08 -1.9780171e-07
000370 2a c6 e7 34 63 30 6b b5 ea 96 ed 33 a5 71 6e b5
       4.3171286e-07 -8.7614734e-07 1.10636236e-07 -8.8827284e-07
000380 1e ec 20 35 33 05 6f b5 12 c1 d4 34 60 61 80 b5
       5.994824e-07 -8.9042004e-07 3.9628554e-07 -9.565083e-07
000390 66 87 ac 33 b5 49 81 35 6a 3f 88 b4 3f 8e 30 b5
       8.034003e-08 9.6327e-07 -2.5378114e-07 -6.5772105e-07
0003a0 58 e6 2d 30 da 8d 8b 34 83 33 28 34 62 b6 78 b5
       6.326437e-10 2.5993978e-07 1.5664959e-07 -9.26526e-07
0003b0 80 0b a5 34 4b 92 83 35 b1 ce 74 b5 af 5f 29 b5
       3.0742012e-07 9.802837e-07 -9.119786e-07 -6.3096644e-07
0003c0 f2 09 1f 35 d9 60 9a 34 1b 9f c3 34 fe 81 58 34
       5.924659e-07 2.87552e-07 3.6437345e-07 2.0163858e-07
0003d0 93 1e 11 35 dd 60 cf b4 8b 6f b0 33 42 44 57 b5
       5.40612e-07 -3.8627232e-07 8.215928e-08 -8.019307e-07
0003e0 d5 75 28 35 18 8e 19 b5 c9 da 61 35 2f c1 5f 35
       6.2756345e-07 -5.7203715e-07 8.4137406e-07 8.335509e-07
0003f0 22 8e 41 b5 1c a8 69 35 3d ee ff b3 8c d7 e9 34
       -7.2104933e-07 8.7043895e-07 -1.1917698e-07 4.3556463e-07

fc2.bias f4 [64]
000000 82 8d 42 bd 61 54 28 bd a5 79 a7 3e a7 2e a6 3f
       -0.047498234 -0.041096095 0.32709995 1.2982987
000010 2b fc ad bd 66 05 99 bd 32 97 23 bc 1c 24 ba 3e
       -0.08495363 -0.07471733 -0.009984778 0.36355674
000020 5a 2d 6f be e7 58 94 bd 81 ae a7 3e 7c 53 13 bc
       -0.23357144 -0.07243519 0.32750323 -0.008992072
000030 1b 0d 69 bd ee 63 9d 3e 5b 54 91 bc 45 de 82 bb
       -0.056897264 0.30740303 -0.01774042 -0.0039937817
000040 92 bf c4 bb 34 23 ef bc dc d1 7c 3e 96 8d d8 3f
       -0.0060042823 -0.02919159 0.2468943 1.6918209
000050 35 04 07 bd 47 2d 9c 3f ad 15 24 bd 7a de a7 bd
       -0.032962997 1.2201318 -0.040059734 -0.08196731
000060 8e b1 21 bd 46 20 cc bc ec fb 9e 3e ae bb 8d bb
       -0.03947597 -0.024917733 0.31051576 -0.0043253517
000070 13 81 ba 3e ee e1 95 bd 9f 64 50 3d d6 8b b0 bd
       0.364266 -0.07318483 0.05087721 -0.086204216
000080 4d 56 b7 3e 0c ea 5c bd 9a c5 0b bd 22 77 bd 3e
       0.3580803 -0.053934142 -0.034123994 0.37004954
000090 62 7e a1 3f 51 f3 e6 ba 4c a0 bd 3f 2d 61 9d 3e
       1.2616694 -0.0017620121 1.4814544 0.30738202
0000a0 1a 2f 04 bd 0a 28 95 bb 47 bf de bc 41 9c 92 bd
       -0.032271482 -0.004551892 -0.027190818 -0.07158709
0000b0 38 38 b3 3e a9 20 c0 3e 54 b5 8c bd aa ef a7 3e
       0.3500383 0.37524918 -0.06870523 0.32800037
0000c0 1d 6b 6e bb 25 c9 83 3f 1d 93 4c bd db 59 01 bd
       -0.0036379762 1.029576 -0.049944986 -0.031579833
0000d0 f2 88 9e bd 48 79 90 bb 62 d0 4d bc 80 99 be 3e
       -0.07740964 -0.004408989 -0.012561889 0.37226486
0000e0 b0 70 bb 3e f8 63 6d bb fd 52 b2 bb f6 ea 13 bd
       0.3660941 -0.0036222916 -0.005442022 -0.036112748
0000f0 da 59 6f bc eb 3d a8 3e b7 92 71 3f 46 a1 4c 3f
       -0.014608825 0.3285974 0.94364494 0.79933584

fc3.weight f4 [4, 64]
000000 9c 89 58 b4 25 05 52 b3 1f cd ac be 7c 94 37 3f
       -2.016663e-07 -4.8899114e-08 -0.33750245 0.71710944
000010 71 2b 69 35 79 23 6c 35 30 56 46 35 37 0c b6 be
       8.686248e-07 8.796847e-07 7.388617e-07 -0.35556194
000020 62 73 96 be ef e7 93 b4 91 ec ac be bb 28 bd 34
       -0.29384905 -2.7549638e-07 -0.33774236 3.523363e-07
000030 11 e3 90 34 c9 ab af be 3d 88 06 b5 90 45 00 bc
       2.6987303e-07 -0.3431075 -5.011714e-07 -0.007829085
000040 e8 9f fd 34 36 73 c0 b4 88 44 6d 3f 14 ec 5e bf
       4.724127e-07 -3.5846614e-07 0.92682695 -0.87078977
000050 ac 0d 1e b5 e6 f8 5e 3f 06 80 c6 b3 c1 70 21 b4
       -5.887948e-07 0.8709854 -9.243381e-08 -1.5035313e-07
000060 92 5b 14 b4 1a f8 d1 33 2d 35 b1 be 53 07 b9 b3
       -1.3816887e-07 9.77745e-08 -0.34610882 -8.616066e-08
000070 87 1f b6 be 14 a4 27 b5 af 48 b6 bf 5d 91 66 b5
       -0.35570928 -6.2451113e-07 -1.4240931 -8.589321e-07
000080 7f b2 b5 be a9 a3 35 34 5f 6e af b4 3f d3 b5 be
       -0.35487744 1.6916478e-07 -3.2676596e-07 -0.3551273
000090 8d ca 7b be a8 c4 29 34 1c 86 33 bf f7 aa af be
       -0.24588986 1.5810895e-07 -0.7012651 -0.34310123
0000a0 32 1c df 33 f7 63 fe bb 2b ec a8 b4 48 f6 77 b5
       1.03893754e-07 -0.0077633816 -3.1464273e-07 -9.2373057e-07
0000b0 6f 59 49 be f1 30 b7 be 8e 4b 78 35 e7 7c ad be
       -0.19663022 -0.35779527 9.2497146e-07 -0.33884355
0000c0 ed e2 00 bc d6 34 15 3f e9 5f c1 34 5d a4 c7 34
       -0.007866603 0.58283746 3.6018835e-07 3.7186228e-07
0000d0 f2 18 9d b4 f3 f2 fe bb 44 6d a3 33 4b 7a b6 be
       -2.926168e-07 -0.0077804266 7.610154e-08 -0.35640177
0000e0 f7 30 b6 be 5c eb 00 bc a0 50 9b 34 9b c8 56 34
       -0.35584232 -0.007868614 2.8929662e-07 2.0003283e-07
0000f0 80 f3 d5 34 1d 49 ae be 41 97 cb bf 84 3e 02 3f
       3.985151e-07 -0.34040156 -1.5905534 0.5087664
000100 51 4b 4d b5 80 54 51 35 d8 f0 52 3e 6f 9c 80 be
       -7.647805e-07 7.798153e-07 0.20599687 -0.2511935
000110 30 bb c1 b3 87 36 4f b4 69 ab c2 32 cd 33 6d 3e
       -9.021312e-08 -1.9298214e-07 2.266252e-08 0.23164292
000120 9d cd f0 3f 77 6c 55 b5 b9 3a 53 3e d1 20 05 33
       1.8812748 -7.950652e-07 0.2062787 3.0996322e-08
000130 b5 fa 12 b5 0f d3 57 3e 26 56 60 b5 5e 69 b4 bc
       -5.4754065e-07 0.21076606 -8.3571865e-07 -0.0220229
000140 7f be ea b4 1d cc 8f 34 d1 1c 05 3f c7 ee 52 3f
       -4.37245e-07 2.6784338e-07 0.51997095 0.82395595
000150 94 90 77 b5 7f d2 c3 3e 05 21 29 b5 15 66 70 35
       -9.222506e-07 0.38246533 -6.3005456e-07 8.9555516e-07
000160 e9 ee 82 34 c5 e8 1e b5 fc 70 5b 3e 4f 05 eb 34
       2.4388217e-07 -5.919831e-07 0.21429819 4.3776024e-07
000170 44 8f 6d 3e fd 4b 87 34 c7 0e c8 bd 59 6e 45 b3
       0.23199183 2.5200998e-07 -0.097684436 -4.5967997e-08
000180 27 2a 6b 3e 06 bb 79 34 e3 bd 0e b5 82 9c 71 3e
       0.22965299 2.3257971e-07 -5.3175444e-07 0.23594859
000190 dd 29 18 be 82 55 b2 34 09 49 99 bf 97 ce 57 3e
       -0.1485972 3.32173e-07 -1.1975414 0.21074902
0001a0 6e db d3 34 34 36 ac bc d7 17 ab 34 48 35 92 b4
       3.946147e-07 -0.02102194 3.1868578e-07 -2.7233386e-07
0001b0 63 bf 87 3e 3a ed 76 3e ca 91 34 b5 47 6e 54 3e
       0.26513204 0.24113932 -6.7267376e-07 0.20745192
0001c0 9b 43 b9 bc fc 1b 78 be eb fc b8 b4 79 c8 c8 b3
       -0.022615245 -0.24229425 -3.4456693e-07 -9.3496915e-08
0001d0 16 a4 15 35 39 5c ae bc 67 64 42 b4 65 f7 72 3e
       5.57456e-07 -0.02128421 -1.8104184e-07 0.23727186
0001e0 7c 08 6e 3e fd 7c b9 bc d0 ef 72 35 02 8e 6f b5
       0.23245424 -0.022642607 9.0501e-07 -8.9241087e-07
0001f0 15 8d 1d b4 8d 3e 56 3e 6f 75 d5 3e 72 00 30 bf
       -1.467309e-07 0.20922299 0.41691157 -0.6875068
000200 66 16 f1 33 5d f5 11 b5 8b 48 9e 3e ec 49 94 be
       1.1226511e-07 -5.437376e-07 0.3091472 -0.28962648
000210 10 83 1e b5 41 0b 0c b5 d5 50 52 35 d6 80 a3 3e
       -5.905031e-07 -5.217044e-07 7.834872e-07 0.31934232
000220 3f 0c 9f bd 84 46 85 35 f6 60 9e 3e f4 b3 15 35
       -0.07766008 9.929795e-07 0.3093335 5.576869e-07
000230 5f ce 7f 35 ab bc a0 3e 4e c7 5e 35 10 9c 87 3b
       9.529521e-07 0.31393942 8.299147e-07 0.004138477
000240 81 cc 85 35 87 32 1d 35 05 ce 29 3f 24 ef 68 bf
       9.968791e-07 5.8560585e-07 0.66329986 -0.909899
000250 74 ec 13 35 c1 c8 9f 3e ae 01 e5 b4 b6 05 ab b4
       5.510585e-07 0.3120785 -4.2655796e-07 -3.1855387e-07
000260 56 2b d7 b3 6e 17 be 33 91 e0 a1 3e c9 6c 56 b5
       -1.00196004e-07 8.851826e-08 0.31616643 -7.9879516e-07
000270 18 7b a3 3e 50 8c 1c 34 2d 40 23 3f e6 82 c1 b4
       0.3192985 1.4579678e-07 0.637698 -3.6044293e-07
000280 92 d7 a3 3e 99 2a 58 b5 43 73 b5 33 d9 74 a3 3e
       0.32000405 -8.052826e-07 8.449435e-08 0.31925085
000290 66 0f 0f 40 5e 13 30 34 74 c7 95 be 65 bc a0 3e
       2.2353148 1.6398323e-07 -0.29253733 0.31393734
0002a0 9d 07 66 b5 6d 3b 96 3b 1e 16 13 b5 7b 31 17 b5
       -8.5692756e-07 0.004584721 -5.479395e-07 -5.6323887e-07
0002b0 a0 11 72 3f 57 5b a4 3e 71 63 99 b4 e3 dd 9e 3e
       0.94558144 0.32100937 -2.8570824e-07 0.3102866
0002c0 2d fb 7c 3b 12 59 29 bf 13 3f 84 b5 c3 f4 a8 b4
       0.003860186 -0.66151536 -9.853123e-07 -3.1470526e-07
0002d0 7f 13 21 35 6c 85 92 3b 53 03 95 b4 e8 bf a3 3e
       6.0005544e-07 0.0044714715 -2.775583e-07 0.3198235
0002e0 c6 72 a3 3e 64 14 7c 3b 73 d6 f4 b4 46 5f e8 34
       0.31923503 0.0038464302 -4.5604574e-07 4.3282688e-07
0002f0 ce b7 47 b5 3c 71 9f 3e 25 cf 8b bf 59 a3 28 bf
       -7.440075e-07 0.31141078 -1.092259 -0.6587425
000300 1e e5 55 b5 a4 80 71 35 97 4c d5 bd b9 dc 82 3f
       -7.968209e-07 8.9966693e-07 -0.10414999 1.0223609
000310 e8 76 38 b5 74 cf 26 34 6d e3 67 34 17 41 f4 bd
       -6.8718373e-07 1.5535426e-07 2.1596288e-07 -0.119264774
000320 2f 7a 81 be a8 53 25 b4 a1 9c d5 bd fe b5 4a 35
       -0.2528853 -1.5397256e-07 -0.10430265 7.55157e-07
000330 67 8b bb b4 04 82 c4 bd aa b3 80 b5 0b 07 bf 3b
       -3.4932893e-07 -0.09595111 -9.589032e-07 0.005829697
000340 bf b9 87 b3 ca 31 d1 33 68 cf 13 be 81 b9 53 bd
       -6.3202144e-08 9.7413775e-08 -0.14434588 -0.051690582
000350 d1 f8 7e b5 df 1c ab bf 87 6a a6 33 6f 92 20 35
       -9.498445e-07 -1.3368186 7.7493546e-08 5.9817734e-07
000360 08 01 f9 b4 90 31 fa 34 48 ac c7 bd 38 df 24 b5
       -4.6380615e-07 4.660219e-07 -0.09749657 -6.1419587e-07
000370 57 dd f4 bd 81 3e a2 34 0f 31 9f be 3c fb 43 b5
       -0.1195628 3.022033e-07 -0.31092116 -7.3008755e-07
000380 06 50 f0 bd 63 43 15 35 79 ad 63 35 06 66 fc bd
       -0.11734013 5.5604886e-07 8.4816526e-07 -0.12324147
000390 5d 65 c6 3d 38 4e ee 34 e4 b8 1e 3e 31 7b c4 bd
       0.09687302 4.4387866e-07 0.15500218 -0.095938094
0003a0 7a 42 90 b4 23 28 cd 3b 0f d0 e5 33 40 31 0e b5
       -2.6870458e-07 0.006260888 1.0701489e-07 -5.297079e-07
0003b0 06 a9 d7 bd 1d 10 fd bd 45 f1 e2 b3 27 9a d6 bd
       -0.105302855 -0.12356589 -1.0567832e-07 -0.10478621
0003c0 44 66 b6 3b 0f 38 a7 3f dc 46 c9 34 6f d3 62 35
       0.00556639 1.3063983 3.7490724e-07 8.4499237e-07
0003d0 24 e3 e4 b4 3a 7c c9 3b e8 16 5a b5 06 60 fe bd
       -4.2633576e-07 0.006148842 -8.124466e-07 -0.12420659
0003e0 2f a8 f5 bd 2d fd b5 3b 6a b1 c7 b4 1c 37 33 b5
       -0.11994969 0.0055538625 -3.7195724e-07 -6.676289e-07
0003f0 34 b6 3b b5 09 79 d8 bd ef 69 3b 3f f5 fa 06 bf
       -6.992807e-07 -0.105699606 0.73208517 -0.5272668

fc3.bias f4 [4]
000000 3a f2 5d be ca 2f be bf b5 e7 2f c0 f1 3f 94 3f
       -0.21674433 -1.4858334 -2.7485173 1.1582013
