critic_model.pt (torch, 55141 bytes, 5 tensors)

fc1.weight f4 [128, 37]
0	0xb572c0d5	-9.043263e-07
1	0xb57078ea	-8.958292e-07
2	0xb2bb1401	-2.1778762e-08
3	0x3571f089	9.012952e-07
4	0xb544d204	-7.33213e-07
5	0x35709d54	8.963591e-07
6	0x35825c26	9.712574e-07
7	0xb5231221	-6.0748613e-07
8	0xb34d9956	-4.786974e-08
9	0x34e73932	4.3068718e-07
10	0x3581e2a9	9.677216e-07
11	0x3491f8e8	2.7189458e-07
12	0x3521b5d9	6.0241797e-07
13	0xb4ac9f9f	-3.2153636e-07
14	0xb401291b	-1.2029015e-07
15	0xb57f99a2	-9.521847e-07
16	0x3518df28	5.694915e-07
17	0x356b68cf	8.769684e-07
18	0x33f74c0a	1.1515665e-07
19	0xb580d884	-9.599758e-07
20	0x3575d4f1	9.157948e-07
21	0x35574582	8.019489e-07
22	0xb4a7db03	-3.1265526e-07
23	0xb51f3ef0	-5.93237e-07
24	0xb5833529	-9.775732e-07
25	0xb5336eca	-6.6843916e-07
26	0x35068f1b	5.0127136e-07
27	0x34fa07c8	4.657179e-07
28	0x3307d135	3.162241e-08
29	0xb52324c6	-6.0775744e-07
30	0xb473c971	-2.2704423e-07
31	0xb56c3583	-8.799472e-07
32	0xb4eb2b26	-4.3803556e-07
33	0x35443a28	7.310032e-07
34	0xb4c3e47a	-3.648782e-07
35	0xb51a58a3	-5.7498454e-07
36	0xb543c7de	-7.2934006e-07
37	0xbec8b65d	-0.39201632
38	0x3f8e7be7	1.1131562
39	0x3f0b7bcd	0.5448578
40	0x3e0c9839	0.13729943
41	0x3da519c6	0.080615565
42	0x3f103ce8	0.56342936
43	0x3f1f61d9	0.6225868
44	0x3e632935	0.22183688
45	0x3ef9717a	0.48719388
46	0xbf187f54	-0.5956929
47	0x3ec84149	0.3911231
48	0x3eb03695	0.34416643
49	0x3c090c3b	0.008364732
50	0x3e96f342	0.29482466
51	0xbf05cb4e	-0.52263343
52	0xbd90e11c	-0.07074186
53	0x3f830a3b	1.0237497
54	0x3ecac638	0.39604354
55	0x402af140	2.6709747
56	0xbd7d5b1a	-0.06185446
57	0x3ce2c902	0.027683739
58	0xbed8063a	-0.4219225
59	0xbe16228c	-0.14661616
60	0x3e9796a2	0.2960711
61	0xbe392039	-0.18078698
62	0x3df72084	0.12066749
63	0xbedc4023	-0.43017682
64	0x3fbc873a	1.4728768
65	0xbf01ce57	-0.50705475
66	0xb50abd8d	-5.168484e-07
67	0xbfbc8730	-1.4728756
68	0xb54b796c	-7.5800085e-07
69	0x3f133f42	0.575184
70	0x3deb37a6	0.114852235
71	0x3e48eb80	0.19621086
72	0xbe62595f	-0.22104405
73	0x3f8a31f1	1.0796491
74	0x3e24063f	0.16018008
75	0x3e4c44f6	0.19948182
76	0x3e4d2b72	0.20036104
77	0xbe562a34	-0.20914537
78	0x3f8bf2af	1.0933436
79	0x3f87a453	1.0597023
80	0x3e1eeac0	0.15519238
81	0xbddfe798	-0.10932845
82	0xbe8db129	-0.27674225
83	0x3d4b9835	0.049705703
84	0x3e6e5699	0.23275222
85	0xbdbc1ed6	-0.09185569
86	0x3e311e4b	0.17296712
87	0xbe9bdec7	-0.30443403
88	0x3e8ca1fc	0.27467334
89	0x3e8b4ca6	0.27206916
90	0xbdb89b06	-0.090139434
91	0xbe2297dd	-0.15878244
92	0xbedae2f6	-0.42751282
93	0xbf812728	-1.0090075
94	0x3e11b4e5	0.14229162
95	0xbe10d5f0	-0.1414411
96	0x3b84c441	0.0040517156
97	0x3e5939b6	0.21213421
98	0x3caa8734	0.020816423
99	0x3e0d03eb	0.13771026
100	0x3f5e4bf1	0.8683463
101	0x3ff69511	1.9264241
102	0xbe9d8544	-0.30765736
103	0xb5236989	-6.0875806e-07
104	0xbff69513	-1.9264244
105	0xb4f48ba2	-4.5550138e-07
106	0x408e4eea	4.447133
107	0xbe8ee479	-0.27908686
108	0x3ec671c5	0.38758674
109	0xbcf5f8bb	-0.03002583
110	0xbe21c951	-0.15799452
111	0x3e4e528c	0.20148677
112	0xbf065c63	-0.5248472
113	0x3e49ee57	0.19719826
114	0x3f8a7c61	1.0819207
115	0x3d9c0eae	0.076199874
116	0x3fac5382	1.3462985
117	0xbe833ba8	-0.25631452
118	0x3d303b48	0.043025285
119	0xbf438883	-0.76380175
120	0xbe819e0e	-0.253159
121	0x3d3ed4e7	0.04658976
122	0x3d06f98c	0.03295283
123	0x3d5c4360	0.05377519
124	0xbbffcda3	-0.007806496
125	0x3f7f8fb5	0.99828655
126	0x3e88bb0d	0.26705208
127	0xbf75e121	-0.96046644
128	0xbefa4541	-0.48880962
129	0x3e752e0a	0.23943344
130	0xbf8b86d8	-1.0900526
131	0x3bdd45ff	0.006752729
132	0xbda25766	-0.07926826
133	0xbe541571	-0.20711304
134	0xbe8dd304	-0.27700055
135	0x3dd26691	0.10273469
136	0x3dd6f6a5	0.104962625
137	0xbf6ae167	-0.91750187
138	0x3f4f9661	0.81088835
139	0xbdec1d4a	-0.11529024
140	0x34dafb2b	4.0788413e-07
141	0xbf4f9657	-0.81088775
142	0x3484664d	2.466135e-07
143	0x3fbee767	1.4914368
144	0xbe39acd7	-0.1813234
145	0xbe80a54d	-0.25126114
146	0x3e8851d8	0.26624942
147	0xbe3d4d0b	-0.18486421
148	0x3f2b606c	0.66944003
149	0x3f76441c	0.96197677
150	0x3f1ffaaf	0.6249189
151	0xbe93d65f	-0.2887449
152	0xbea1441c	-0.31497276
153	0x3ee71e36	0.45140237
154	0x3deb0cbe	0.1147704
155	0x3df44c99	0.11928672
156	0xbe8422cf	-0.25807807
157	0xbecae5e5	-0.3962852
158	0xbdfa5fdc	-0.12225315
159	0x3e3f0eae	0.18657944
160	0xbe252eed	-0.16131182
161	0x3db64ef4	0.08901778
162	0xbf0a9ec6	-0.5414852
163	0xbf2e110e	-0.67994773
164	0xbd3abcb7	-0.04559013
165	0xbee5ad60	-0.44858837
166	0xbfaf971a	-1.3717988
167	0xbeeb0726	-0.4590389
168	0xbd4d5be3	-0.050136458
169	0x3e6e5639	0.23275079
170	0xbe62c80f	-0.22146629
171	0x3c864756	0.016391438
172	0xbe132ee6	-0.14373359
173	0xbe82101d	-0.25402918
174	0x3f0f609e	0.560068
175	0x401da931	2.4634516
176	0x3e9cb3e5	0.30606
177	0x3482ac4f	2.4339758e-07
178	0xc01da931	-2.4634516
179	0x34bde515	3.5370672e-07
180	0xc04846b0	-3.1293144
181	0x3d7c73f5	0.061634023
182	0xbe3f9532	-0.18709257
183	0xbe4ffc8b	-0.20311181
184	0xbd830fac	-0.063994735
185	0xb53949e6	-6.9025407e-07
186	0xb53d0fe7	-7.043113e-07
187	0xb53fb784	-7.1420095e-07
188	0x318140dd	3.7617682e-09
189	0xb49aef1e	-2.8858716e-07
190	0xb3fb3565	-1.1697811e-07
191	0x33922802	6.805932e-08
192	0x34b199fe	3.3080863e-07
193	0xb41793fb	-1.4116806e-07
194	0x353fbccf	7.14278e-07
195	0x356f8a2b	8.92355e-07
196	0xb401bccf	-1.208275e-07
197	0x34c480bb	3.660151e-07
198	0x340bf823	1.3035655e-07
199	0x34b4a2c2	3.3646035e-07
200	0xb4b2811b	-3.324902e-07
201	0xb531a25e	-6.6173914e-07
202	0x352d708f	6.4611316e-07
203	0xb47f4456	-2.3773586e-07
204	0x3420ef89	1.4988304e-07
205	0x34857b5b	2.4862933e-07
206	0x3517cbb4	5.654831e-07
207	0x34d57d74	3.976562e-07
208	0xb3d19c39	-9.7607376e-08
209	0x35542270	7.902627e-07
210	0x33b01041	8.198595e-08
211	0xb5286fb8	-6.274745e-07
212	0xb4370197	-1.7043781e-07
213	0xb40bfef4	-1.3038135e-07
214	0xb4678d7a	-2.156502e-07
215	0x358095ac	9.580303e-07
216	0x3537f245	6.852536e-07
217	0x35484c98	7.4617265e-07
218	0x34c92c0a	3.747121e-07
219	0x34fc2cba	4.69712e-07
220	0xb56f740f	-8.9203326e-07
221	0xb5092821	-5.109487e-07
222	0x3df2a344	0.11847547
223	0xbd0b1249	-0.033952985
224	0xbdf1f549	-0.118143626
225	0xbf2bba20	-0.6708088
226	0xbf223514	-0.6336224
227	0xbe332046	-0.1749278
228	0xbf67b3df	-0.90508837
229	0x3f2ab6f2	0.666854
230	0x3ea8822f	0.32911822
231	0x3e72051f	0.23634766
232	0x3e8b98d5	0.2726504
233	0xbd1fe3ae	-0.03903549
234	0xbda58df4	-0.08083716
235	0x3ef3225f	0.4748716
236	0x3fc9a15a	1.5752366
237	0xbe8e6d53	-0.27817783
238	0xbd54ab21	-0.051921014
239	0xbea23fae	-0.3168921
240	0x3f3304a0	0.6992893
241	0x3e65f506	0.2245675
242	0xbdb76e6c	-0.08956608
243	0x3d06fe6d	0.032957483
244	0xbde8c37b	-0.1136541
245	0x3e7b8ff6	0.24566635
246	0x3daf9d3c	0.08574912
247	0xbe371054	-0.17877322
248	0xbf2d0626	-0.67587507
249	0x3fd62a6a	1.6731694
250	0xbf3e61d8	-0.7436805
251	0x35784a8c	9.249568e-07
252	0xbfd62a66	-1.6731689
253	0xb4c9b3a9	-3.7569887e-07
254	0x404fcffd	3.2470696
255	0x3ea04796	0.31304616

fc1.bias f4 [128]
0	0xbe018575	-0.12648566
1	0xbfb52d7d	-1.4154507
2	0xbfe2b92e	-1.7712762
3	0xbf2b02ae	-0.66800964
4	0xc018d096	-2.387731
5	0xbe19aa84	-0.15006453
6	0xbfd3b80b	-1.654054
7	0xbdcf514e	-0.101229295
8	0xbdc37d81	-0.09545422
9	0xbdd46c51	-0.10372222
10	0xbdfdb074	-0.123871714
11	0xbfcafa03	-1.5857548
12	0xbfd0de71	-1.6317884
13	0xbe0bed7c	-0.13664812
14	0xbf3478ac	-0.7049663
15	0xbe0a8ae7	-0.1352955
16	0xc0288602	-2.6331792
17	0xbe8b9937	-0.2726533
18	0xbf5419b1	-0.828517
19	0xc016be3a	-2.3553605
20	0xbd9ee792	-0.07759012
21	0xbfe13f07	-1.759736
22	0x3f202244	0.62552285
23	0xbf98421f	-1.1895179
24	0xbd8e8e82	-0.06960775
25	0xbda1b713	-0.07896247
26	0xbde4393e	-0.111437306
27	0xbd440afb	-0.047862034
28	0xbf9403f1	-1.1563703
29	0xbe19b74a	-0.15011325
30	0xbfc452de	-1.5337789
31	0xbdc36e06	-0.0954247
32	0xbffd23e7	-1.9776582
33	0xbe0946fc	-0.13405985
34	0xbc6b521e	-0.01436284
35	0xbe112450	-0.14174008
36	0xbdf89176	-0.121371195
37	0xbfb99977	-1.4499959
38	0xc007e685	-2.1234448
39	0xbf9e450c	-1.2364821
40	0xbd1729a7	-0.036904957
41	0xbd1858ae	-0.037193947
42	0xbe245de4	-0.16051441
43	0xbd381276	-0.04493948
44	0xbf751159	-0.95729595
45	0xbf8ef9fb	-1.1170038
46	0xbfc51585	-1.5397192
47	0xbd99f661	-0.07517696
48	0xbfdce417	-1.7257107
49	0xc00abfb4	-2.1679506
50	0xbfc981e9	-1.574277
51	0xbbfdd52a	-0.0077463584
52	0xbecd5b8b	-0.40108904
53	0xbca38ddf	-0.01996511
54	0xbfb4128a	-1.4068158
55	0xbeb2fd7a	-0.34959012
56	0xbdd5c6af	-0.104382865
57	0xc00dddb3	-2.2166564
58	0xbf855e10	-1.0419331
59	0xc01864e3	-2.3811576
60	0xc00535e4	-2.0814142
61	0xbe04a2a6	-0.1295267
62	0xc00bdf27	-2.1854951
63	0xbdaa8052	-0.083252564
64	0xbfcb43f6	-1.5880115
65	0xbd3a08c8	-0.04541853
66	0xbdfb9c9f	-0.122857325
67	0xbe6c70ca	-0.230899
68	0xbf24c2cd	-0.6435974
69	0xbf3f465c	-0.74716735
70	0xbe20117c	-0.1563167
71	0xbe16617d	-0.14685626
72	0xc0000199	-2.0000975
73	0xbe1aaa01	-0.15103914
74	0xc01be369	-2.435755
75	0xbd957016	-0.07296769
76	0xc0167173	-2.3506744
77	0xc0217f0d	-2.5233796
78	0xb9833de4	-0.0002503238
79	0xbeec6bd5	-0.4617602
80	0xbe02730c	-0.127392
81	0xbf9f2844	-1.2434163
82	0xbd0108f4	-0.03150268
83	0xbe1b1064	-0.15142971
84	0xbf41b4db	-0.7566659
85	0xbdd6678a	-0.10468967
86	0xbdf9284c	-0.12165889
87	0xbf86634d	-1.0499054
88	0xc016db39	-2.3571303
89	0xbffe011d	-1.984409
90	0xbe0e0204	-0.13867956
91	0xbcf81f4a	-0.030288357
92	0xbda185b2	-0.078868285
93	0xbda2846f	-0.07935416
94	0xbd73fd2d	-0.05956762
95	0xc0194209	-2.3946555
96	0xbe1a0275	-0.1504
97	0xbfa227b0	-1.2668362
98	0xbf8c8180	-1.097702
99	0xbd603705	-0.05473997
100	0x3c4dad50	0.012553528
101	0xbe03345d	-0.12812944
102	0xbec65825	-0.38739124
103	0xbe19528f	-0.149729
104	0x3fd1690a	1.636018
105	0xbe1a294e	-0.15054819
106	0xbcea7123	-0.0286184
107	0xbe11a916	-0.14224657
108	0xbda4b433	-0.08042183
109	0xbf0c8658	-0.5489249
110	0xbd7833b1	-0.06059617
111	0xbfe446fb	-1.7834162
112	0xbd9195d1	-0.07108653
113	0xbc81b884	-0.015835054
114	0xc01e116d	-2.4698136
115	0xc00fb9bf	-2.245712
116	0x3fa1d5d4	1.264338
117	0xbfa0344b	-1.2515959
118	0xbf857a1c	-1.042789
119	0xbfc1ca42	-1.5139849
120	0xbfd54e09	-1.666444
121	0xbfa67c6e	-1.3006723
122	0xbd44f3ab	-0.048083942
123	0xbe236891	-0.15957858
124	0xbf455a02	-0.77090466
125	0xbccb9de7	-0.024855567
126	0xbd2954b9	-0.041340563
127	0xbfebfb0f	-1.8435992

fc2.weight f4 [64, 128]
0	0xb5352580	-6.7482324e-07
1	0xbc2d86b0	-0.010591194
2	0xbc33c6d9	-0.010972702
3	0xbc3367ef	-0.010950073
4	0xbc2fbf25	-0.010726725
5	0xb156ba8c	-3.1247138e-09
6	0xbc1df885	-0.009641771
7	0xb315cc10	-3.487736e-08
8	0xbc32d445	-0.010914867
9	0xb27533f4	-1.427269e-08
10	0xb4b6fe17	-3.4085016e-07
11	0xbc32cf44	-0.010913674
12	0xbc2ad996	-0.010427853
13	0xb36780cb	-5.3901015e-08
14	0xbc31135c	-0.010807838
15	0x34bf201d	3.5599888e-07
16	0xbc02f8b0	-0.007993862
17	0xbc31473e	-0.010820208
18	0xbc187449	-0.009305068
19	0xbc318af5	-0.010836353
20	0xbc31329b	-0.010815288
21	0xbc330a79	-0.01092779
22	0xbc32cb71	-0.010912762
23	0xbc33bada	-0.010969842
24	0xb5474bbd	-7.424349e-07
25	0xb552e515	-7.8564454e-07
26	0x333de2ac	4.421115e-08
27	0xb56dbe22	-8.856606e-07
28	0xbc186522	-0.009301456
29	0xb57b368b	-9.3584157e-07
30	0xbc33a396	-0.010964295
31	0x343973fb	1.7271661e-07
32	0xbc2790d7	-0.010227404
33	0x347a6bf8	2.3322343e-07
34	0x3515b2a5	5.576679e-07
35	0xb553ce9f	-7.89043e-07
36	0x34c19060	3.6054098e-07
37	0xbc30400b	-0.0107574565
38	0xbc2bed47	-0.010493583
39	0xbc2df766	-0.010618066
40	0xb55aa0ba	-8.1445216e-07
41	0xb4e8a1ad	-4.3331002e-07
42	0x34c827d0	3.728187e-07
43	0xb4ffe2ca	-4.7662462e-07
44	0xbc339cba	-0.0109626595
45	0xbc2a3f7c	-0.010391112
46	0xbc327cea	-0.01089404
47	0xb56fa8d3	-8.928011e-07
48	0xbc31f4e9	-0.010861614
49	0xbc274048	-0.010208197
50	0xbc32a0f1	-0.010902629
51	0xb577cfe1	-9.2317174e-07
52	0xbc314c06	-0.010821348
53	0x34bc869c	3.511567e-07
54	0xbc2b14d7	-0.01044198
55	0xbc33fab4	-0.010985065
56	0xb54eb8f3	-7.7010117e-07
57	0xbc2f1b7d	-0.010687706
58	0xbc311835	-0.010808994
59	0xbc339359	-0.010960423
60	0xbc3303d6	-0.0109262075
61	0x348e93b8	2.655704e-07
62	0xbc0cafad	-0.008586806
63	0xb4cfd0b3	-3.8708603e-07
64	0xbc310bdd	-0.010806051
65	0x3485bbaa	2.4909724e-07
66	0xb4a4e65a	-3.0714983e-07
67	0xbc33dca8	-0.0109779015
68	0xbc330cfa	-0.010928387
69	0xbc331f0d	-0.010932696
70	0xb5449256	-7.3228637e-07
71	0xb584d6fb	-9.897334e-07
72	0xbc31cbfc	-0.010851856
73	0xb4969eb8	-2.805516e-07
74	0xbc251d67	-0.010077811
75	0xb4fc8abd	-4.7039603e-07
76	0xbc2dcede	-0.010608403
77	0xbc28cf61	-0.010303349
78	0x32bc2763	2.1903992e-08
79	0xbb8d6a52	-0.004315653
80	0x35687af0	8.660563e-07
81	0xbc329361	-0.010899396
82	0xb2c2cc70	-2.267754e-08
83	0x349948e9	2.855152e-07
84	0xbc2f7949	-0.010710069
85	0xb56c390b	-8.799986e-07
86	0x33dfd70a	1.0423362e-07
87	0xbc33bd80	-0.010970473
88	0xbc2da37e	-0.010598062
89	0xbc3058b6	-0.010763338
90	0xb3be5293	-8.8625846e-08
91	0x33b11c9f	8.247411e-08
92	0xb57bfe06	-9.387444e-07
93	0xbc33c511	-0.010972277
94	0x35645e8d	8.507421e-07
95	0xbc3389cc	-0.010958146
96	0x339f620f	7.421851e-08
97	0xbc329d2e	-0.010901732
98	0xbc2fc1ec	-0.010727387
99	0x34669cb2	2.1477425e-07
100	0xbc3310bf	-0.010929286
101	0xb49db98a	-2.9378526e-07
102	0xbc1b30b1	-0.009472058
103	0xb57fa557	-9.5235504e-07
104	0xbc156149	-0.009117433
105	0x3578bd25	9.266244e-07
106	0x34bd49ba	3.5257636e-07
107	0xb4cce0d4	-3.8161545e-07
108	0xb5723c9b	-9.024022e-07
109	0xbc3044df	-0.010758608
110	0xb556bdf3	-7.9997625e-07
111	0xbc2e3af6	-0.010634175
112	0xb5271add	-6.225144e-07
113	0xbc298047	-0.010345525
114	0xbc31bedb	-0.010848726
115	0xbc320cf6	-0.010867348
116	0xbc2cc695	-0.0105453925
117	0xbc2f20ed	-0.010689002
118	0xbb5f8f41	-0.0034112486
119	0xbc2fd28f	-0.010731353
120	0xbc32e900	-0.010919809
121	0xbc237387	-0.009976274
122	0xb4c671de	-3.6963223e-07
123	0xb4f46f4c	-4.552952e-07
124	0xbc2f5733	-0.010701942
125	0x33e55f35	1.06809615e-07
126	0xb531e8b2	-6.6276255e-07
127	0xbc32ff08	-0.010925062
128	0xb519897c	-5.719701e-07
129	0x357390ac	9.073508e-07
130	0x3426a2f5	1.5519238e-07
131	0xb4de96c2	-4.1460413e-07
132	0x34da62d4	4.067757e-07
133	0xb4edfbe9	-4.432798e-07
134	0xb55ee5ae	-8.303567e-07
135	0x352d4caf	6.455911e-07
136	0x3506f0a8	5.026909e-07
137	0x3525e5d4	6.1801734e-07
138	0x354199f8	7.2122157e-07
139	0xb5223458	-6.0425873e-07
140	0x35540670	7.898552e-07
141	0x3568997e	8.6650095e-07
142	0x354d8243	7.6558007e-07
143	0x355d41d0	8.2424685e-07
144	0x356e1355	8.869004e-07
145	0xb48f99af	-2.6747645e-07
146	0x349c8f3f	2.916149e-07
147	0x3574f61f	9.1255237e-07
148	0x34a87400	3.137684e-07
149	0x34119168	1.3557076e-07
150	0xb528511e	-6.270292e-07
151	0xb5789d8a	-9.261645e-07
152	0x35670052	8.605467e-07
153	0xb532e414	-6.6642065e-07
154	0xb42c2e2c	-1.6035546e-07
155	0xb531f400	-6.6292705e-07
156	0x3579b148	9.3017707e-07
157	0x34de5276	4.141072e-07
158	0x34d68a61	3.996129e-07
159	0xb5854ba1	-9.931283e-07
160	0xb4122670	-1.3611293e-07
161	0xb45578ea	-1.9881159e-07
162	0x34c55233	3.6753917e-07
163	0xb459f5ae	-2.0299078e-07
164	0xb57be3ea	-9.3836445e-07
165	0x3520b2b1	5.9864675e-07
166	0x34b5d8a9	3.3871518e-07
167	0x35520fac	7.82539e-07
168	0xb4e90f82	-4.3410915e-07
169	0xb53b1e00	-6.9706584e-07
170	0x356716a0	8.608713e-07
171	0x348cdc23	2.6237203e-07
172	0xb46b3359	-2.190476e-07
173	0x3523b3ee	6.0984064e-07
174	0x34dbb481	4.0923263e-07
175	0xb5856588	-9.938822e-07
176	0x355e6994	8.285508e-07
177	0xb50ac85f	-5.1700584e-07
178	0x3476e0c1	2.29923e-07
179	0xb4c2f6fd	-3.6315024e-07
180	0xb416d988	-1.4048976e-07
181	0xb54e1e11	-7.678473e-07
182	0xb48ecbab	-2.659775e-07
183	0x353cb16a	7.029363e-07
184	0xb48fdc85	-2.6796275e-07
185	0xb4ef9cac	-4.4631213e-07
186	0x350db817	5.279448e-07
187	0xb426deb5	-1.5540975e-07
188	0xb51577ff	-5.568144e-07
189	0x340307d9	1.220318e-07
190	0xb53c27ef	-7.009357e-07
191	0xb51d41f7	-5.858305e-07
192	0x357a8c5a	9.3336496e-07
193	0xb41f6c16	-1.484735e-07
194	0x351d2068	5.8534215e-07
195	0xb54511fd	-7.3414395e-07
196	0xb5201620	-5.963684e-07
197	0xb3fe9aed	-1.18559775e-07
198	0xb4c91614	-3.7455231e-07
199	0xb45d59da	-2.0614917e-07
200	0x3548a379	7.474369e-07
201	0xb57f5434	-9.5117434e-07
202	0xb3d9095b	-1.0106552e-07
203	0x352dd424	6.475623e-07
204	0x34e2f099	4.2270838e-07
205	0xb54e79bc	-7.6918127e-07
206	0xb54d6eff	-7.652997e-07
207	0x34a537c5	3.0774223e-07
208	0x34080022	1.2666035e-07
209	0x33bc549b	8.769822e-08
210	0xb51d7ae5	-5.866589e-07
211	0xb51f123e	-5.925866e-07
212	0x351b1750	5.7775924e-07
213	0xb5589299	-8.06796e-07
214	0xb4d7f541	-4.0225316e-07
215	0x3571cdc4	9.0078925e-07
216	0xb57ce4b6	-9.4210134e-07
217	0xb4fce1bf	-4.710291e-07
218	0x342dcac9	1.6185653e-07
219	0xb5856a42	-9.940197e-07
220	0x3498d5d4	2.8467787e-07
221	0x35513142	7.7930247e-07
222	0xb51ccd34	-5.841314e-07
223	0x34a81498	3.1307422e-07
224	0xb53321f7	-6.673212e-07
225	0x312491b0	2.3947955e-09
226	0xb49a2efd	-2.8718924e-07
227	0xb539f343	-6.9271863e-07
228	0xb4dc1a82	-4.099748e-07
229	0xb493419c	-2.742862e-07
230	0xb559b02d	-8.109517e-07
231	0x3510d81f	5.395868e-07
232	0xb5402a02	-7.1586703e-07
233	0xb4a8d4dc	-3.1447314e-07
234	0xb5274dd8	-6.2325626e-07
235	0x35308d56	6.577078e-07
236	0x357d53d0	9.437181e-07
237	0xb5158e00	-5.571346e-07
238	0xb4869d24	-2.507378e-07
239	0x35436c7f	7.2801043e-07
240	0xb42af0bb	-1.5920061e-07
241	0x34834c34	2.4456097e-07
242	0xb4866097	-2.5029723e-07
243	0x35029323	4.8642886e-07
244	0x349a3cde	2.8729022e-07
245	0xb3405d64	-4.4788422e-08
246	0xb4ca585a	-3.7689716e-07
247	0xb402e36d	-1.218993e-07
248	0xb5525c60	-7.836552e-07
249	0x35793752	9.284023e-07
250	0xb5380f9d	-6.856806e-07
251	0xb4237e20	-1.5226442e-07
252	0x35071893	5.032718e-07
253	0xb23d16fd	-1.1006475e-08
254	0x34b2c55d	3.3298684e-07
255	0x34e793e2	4.3134702e-07

fc2.bias f4 [64]
0	0xbbf127ee	-0.0073594963
1	0xbc6a4e96	-0.014300963
2	0xbd54dc14	-0.051967695
3	0xbd9131f1	-0.07089604
4	0xbd0e73e2	-0.034778483
5	0xbd92ea67	-0.07173615
6	0xbc17c593	-0.009263414
7	0xbd25d475	-0.040485818
8	0xbc8f7d7d	-0.017515892
9	0x3fdc7c49	1.7225429
10	0xbd6ac6a6	-0.057318352
11	0xbb1f8ba6	-0.0024344712
12	0xbd889e1f	-0.06670784
13	0x4018e7d4	2.3891497
14	0x3f9c67c1	1.2219163
15	0xbd1e6e74	-0.038679555
16	0xbbd9cb98	-0.0066465847
17	0xbd4c1be3	-0.049831282
18	0xbc3f5eec	-0.011680346
19	0xba3da72d	-0.0007234689
20	0xbc0ef69c	-0.008725788
21	0xbb2e95dd	-0.0026639618
22	0xbd3defc1	-0.046371225
23	0x3e86eb1f	0.26351258
24	0x3fc76737	1.5578374
25	0xbb7c16af	-0.003846567
26	0xbbbf2835	-0.0058336505
27	0xbdafff6e	-0.08593641
28	0xbae7a8d1	-0.0017674213
29	0xbac31aa5	-0.001488526
30	0xbd838b4f	-0.064230554
31	0xba59b515	-0.00083048764
32	0xbd8dafa0	-0.069182634
33	0xba6ce911	-0.0009037415
34	0xbbb30d86	-0.0054642586
35	0xbc810665	-0.01575012
36	0x400eb6b6	2.2299018
37	0xb97e057f	-0.00024225375
38	0x3f0cea6c	0.550452
39	0xbcc87f06	-0.024474632
40	0xbd32a148	-0.04361084
41	0xbd4fe03f	-0.050750967
42	0xbd5c3d12	-0.05376918
43	0xbd5c6a6f	-0.05381244
44	0xbd60fb02	-0.05492688
45	0xb945cdc4	-0.00018864038
46	0xbc22d87f	-0.009939312
47	0xbd6422be	-0.055697195
48	0xbf4374e8	-0.7635026
49	0xbb27ac4b	-0.0025584872
50	0xbb5a4d36	-0.0033310181
51	0xb9db164b	-0.00041787545
52	0xbd91a681	-0.07111836
53	0xbad7728e	-0.0016437338
54	0xbbffc879	-0.0078058806
55	0xbb219e91	-0.0024661163
56	0xbda110d6	-0.07864539
57	0xbc01a8f0	-0.007913813
58	0xbd66b6dc	-0.056326732
59	0xbbdeda7b	-0.0068009472
60	0xbd8eb98a	-0.069689825
61	0xbced04ec	-0.028933011
62	0xba4cb080	-0.0007808283
63	0xbb1c4b0f	-0.002384845

fc3.weight f4 [1, 64]
0	0x3b2d58ca	0.0026450627
1	0x34f5d3bb	4.578886e-07
2	0x34d58709	3.9772593e-07
3	0xb5156888	-5.565894e-07
4	0x353fa43a	7.1392026e-07
5	0xb53e6941	-7.093368e-07
6	0x3bc7662a	0.006085177
7	0x352a70d4	6.349412e-07
8	0x345451b1	1.9773758e-07
9	0x3d64843e	0.05579018
10	0x338ab7fe	6.459594e-08
11	0xb9beb2ef	-0.0003637294
12	0xb54fe87f	-7.7451836e-07
13	0x3d3a5c13	0.045497965
14	0x3d7c4f38	0.061598986
15	0x3c234486	0.009965068
16	0xba150954	-0.0005685289
17	0xb5324adb	-6.6419096e-07
18	0xb4ce6d2f	-3.8449932e-07
19	0xb8282f56	-4.0098406e-05
20	0x352fbabf	6.546433e-07
21	0xb844a09b	-4.6879617e-05
22	0x3439f8e4	1.7320014e-07
23	0xbd2c9ace	-0.04213982
24	0x3d980c9a	0.074242786
25	0x3b0f3d14	0.0021856474
26	0xb4f48ee5	-4.555251e-07
27	0xb5825ddf	-9.713075e-07
28	0xba186385	-0.00058131694
29	0xb9ee5c28	-0.0004546356
30	0x345efaf8	2.0766663e-07
31	0xb8d3f0a2	-0.000101060854
32	0xbc3931a7	-0.011303342
33	0xb797506d	-1.8038054e-05
34	0x39570d2f	0.00020508909
35	0xb4fd837d	-4.7220593e-07
36	0x3daa907f	0.08328342
37	0xba026460	-0.00049740635
38	0xbd2df88d	-0.042473365
39	0x34b91a11	3.44779e-07
40	0xb57c7732	-9.405077e-07
41	0x34a195c0	3.0097544e-07
42	0x351b4fd9	5.7858193e-07
43	0x3511a0bc	5.425061e-07
44	0x343d3b64	1.7623603e-07
45	0xb885d6be	-6.381933e-05
46	0x350f7d93	5.3454386e-07
47	0xb4d18b1a	-3.9030493e-07
48	0xbd751f83	-0.059844505
49	0xba3453a7	-0.000687892
50	0xba87ca7e	-0.001036003
51	0x3495c276	2.7894902e-07
52	0xb54d9d18	-7.659705e-07
53	0x3b1b5c9e	0.0023706327
54	0xb5723209	-9.0224836e-07
55	0xba2ec2ab	-0.0006666581
56	0xb4adde3c	-3.2385458e-07
57	0x3b72ebac	0.003706674
58	0x3370f66a	5.6103467e-08
59	0x392f5fb1	0.00016724948
60	0x353a1bfa	6.933111e-07
61	0x350a4bd1	5.1519334e-07
62	0xb7d63ea9	-2.5539966e-05
63	0xb9e1a62f	-0.0004303916
